Model: "sequential_1"
____________________________________________________________________________________________________
Layer Output Shape                                     Param #     
====================================================================================================
lambd (None, 136, 320, 2)                              0           
____________________________________________________________________________________________________
conv2 (None, 44, 106, 80)                              4080        
____________________________________________________________________________________________________
max_p (None, 4, 10, 80)                                0           
____________________________________________________________________________________________________
flatt (None, 3200)                                     0           
____________________________________________________________________________________________________
dense (None, 1)                                        3201        
====================================================================================================
Total params: 7,281
Trainable params: 7,281
Non-trainable params: 0
____________________________________________________________________________________________________