Model: "sequential_27"
____________________________________________________________________________________________________
Layer Output Shape                                     Param #     
====================================================================================================
lambd (None, 120, 300, 2)                              0           
____________________________________________________________________________________________________
conv2 (None, 58, 148, 320)                             16320       
____________________________________________________________________________________________________
max_p (None, 29, 74, 320)                              0           
____________________________________________________________________________________________________
flatt (None, 686720)                                   0           
____________________________________________________________________________________________________
dense (None, 1)                                        686721      
====================================================================================================
Total params: 703,041
Trainable params: 703,041
Non-trainable params: 0
____________________________________________________________________________________________________