Model: "sequential_2"
____________________________________________________________________________________________________
Layer Output Shape                                     Param #     
====================================================================================================
lambd (None, 120, 300, 2)                              0           
____________________________________________________________________________________________________
conv2 (None, 58, 148, 80)                              4080        
____________________________________________________________________________________________________
max_p (None, 29, 74, 80)                               0           
____________________________________________________________________________________________________
flatt (None, 171680)                                   0           
____________________________________________________________________________________________________
dense (None, 1)                                        171681      
====================================================================================================
Total params: 175,761
Trainable params: 175,761
Non-trainable params: 0
____________________________________________________________________________________________________