Model: "sequential_12"
____________________________________________________________________________________________________
Layer Output Shape                                     Param #     
====================================================================================================
lambd (None, 120, 300, 2)                              0           
____________________________________________________________________________________________________
conv2 (None, 116, 296, 160)                            8160        
____________________________________________________________________________________________________
max_p (None, 58, 148, 160)                             0           
____________________________________________________________________________________________________
conv2 (None, 27, 72, 320)                              1280320     
____________________________________________________________________________________________________
max_p (None, 13, 36, 320)                              0           
____________________________________________________________________________________________________
conv2 (None, 5, 16, 640)                               5120640     
____________________________________________________________________________________________________
max_p (None, 2, 8, 640)                                0           
____________________________________________________________________________________________________
flatt (None, 10240)                                    0           
____________________________________________________________________________________________________
dense (None, 1)                                        10241       
====================================================================================================
Total params: 6,419,361
Trainable params: 6,419,361
Non-trainable params: 0
____________________________________________________________________________________________________