Model: "sequential_1"
____________________________________________________________________________________________________
Layer Output Shape                                     Param #     
====================================================================================================
lambd (None, 120, 300, 2)                              0           
____________________________________________________________________________________________________
conv2 (None, 58, 148, 160)                             8160        
____________________________________________________________________________________________________
max_p (None, 29, 74, 160)                              0           
____________________________________________________________________________________________________
flatt (None, 343360)                                   0           
____________________________________________________________________________________________________
dense (None, 1)                                        343361      
====================================================================================================
Total params: 351,521
Trainable params: 351,521
Non-trainable params: 0
____________________________________________________________________________________________________