Model: "sequential_15"
____________________________________________________________________________________________________
Layer Output Shape                                     Param #     
====================================================================================================
lambd (None, 120, 300, 2)                              0           
____________________________________________________________________________________________________
conv2 (None, 58, 148, 160)                             8160        
____________________________________________________________________________________________________
max_p (None, 29, 74, 160)                              0           
____________________________________________________________________________________________________
conv2 (None, 13, 35, 320)                              1280320     
____________________________________________________________________________________________________
max_p (None, 6, 17, 320)                               0           
____________________________________________________________________________________________________
conv2 (None, 2, 13, 640)                               5120640     
____________________________________________________________________________________________________
max_p (None, 1, 6, 640)                                0           
____________________________________________________________________________________________________
flatt (None, 3840)                                     0           
____________________________________________________________________________________________________
dense (None, 1)                                        3841        
====================================================================================================
Total params: 6,412,961
Trainable params: 6,412,961
Non-trainable params: 0
____________________________________________________________________________________________________