Model: "sequential_1"
____________________________________________________________________________________________________
Layer Output Shape                                     Param #     
====================================================================================================
lambd (None, 120, 300, 2)                              0           
____________________________________________________________________________________________________
conv2 (None, 58, 148, 40)                              2040        
____________________________________________________________________________________________________
max_p (None, 29, 74, 40)                               0           
____________________________________________________________________________________________________
flatt (None, 85840)                                    0           
____________________________________________________________________________________________________
dense (None, 1)                                        85841       
====================================================================================================
Total params: 87,881
Trainable params: 87,881
Non-trainable params: 0
____________________________________________________________________________________________________