Model: "sequential_3"
____________________________________________________________________________________________________
Layer Output Shape                                     Param #     
====================================================================================================
lambd (None, 120, 300, 2)                              0           
____________________________________________________________________________________________________
conv2 (None, 58, 148, 80)                              4080        
____________________________________________________________________________________________________
max_p (None, 29, 74, 80)                               0           
____________________________________________________________________________________________________
conv2 (None, 13, 35, 160)                              320160      
____________________________________________________________________________________________________
max_p (None, 6, 17, 160)                               0           
____________________________________________________________________________________________________
flatt (None, 16320)                                    0           
____________________________________________________________________________________________________
dense (None, 1)                                        16321       
====================================================================================================
Total params: 340,561
Trainable params: 340,561
Non-trainable params: 0
____________________________________________________________________________________________________