Model: "sequential_1"
____________________________________________________________________________________________________
Layer Output Shape                                     Param #     
====================================================================================================
lambd (None, 136, 320, 3)                              0           
____________________________________________________________________________________________________
conv2 (None, 44, 106, 80)                              6080        
____________________________________________________________________________________________________
max_p (None, 8, 21, 80)                                0           
____________________________________________________________________________________________________
flatt (None, 13440)                                    0           
____________________________________________________________________________________________________
dense (None, 128)                                      1720448     
____________________________________________________________________________________________________
dense (None, 64)                                       8256        
____________________________________________________________________________________________________
dense (None, 16)                                       1040        
____________________________________________________________________________________________________
dense (None, 1)                                        17          
====================================================================================================
Total params: 1,735,841
Trainable params: 1,735,841
Non-trainable params: 0
____________________________________________________________________________________________________