Model: "sequential_1"
____________________________________________________________________________________________________
Layer Output Shape                                     Param #     
====================================================================================================
lambd (None, 136, 320, 2)                              0           
____________________________________________________________________________________________________
conv2 (None, 136, 320, 160)                            3040        
____________________________________________________________________________________________________
max_p (None, 13, 32, 160)                              0           
____________________________________________________________________________________________________
flatt (None, 66560)                                    0           
____________________________________________________________________________________________________
dense (None, 128)                                      8519808     
____________________________________________________________________________________________________
dense (None, 1)                                        129         
====================================================================================================
Total params: 8,522,977
Trainable params: 8,522,977
Non-trainable params: 0
____________________________________________________________________________________________________