Model: "sequential_1"
____________________________________________________________________________________________________
Layer Output Shape                                     Param #     
====================================================================================================
lambd (None, 136, 320, 2)                              0           
____________________________________________________________________________________________________
conv2 (None, 46, 107, 160)                             8160        
____________________________________________________________________________________________________
max_p (None, 4, 10, 160)                               0           
____________________________________________________________________________________________________
flatt (None, 6400)                                     0           
____________________________________________________________________________________________________
dense (None, 128)                                      819328      
____________________________________________________________________________________________________
dense (None, 64)                                       8256        
____________________________________________________________________________________________________
dense (None, 16)                                       1040        
____________________________________________________________________________________________________
dense (None, 1)                                        17          
====================================================================================================
Total params: 836,801
Trainable params: 836,801
Non-trainable params: 0
____________________________________________________________________________________________________