Model: "sequential_1"
____________________________________________________________________________________________________
Layer Output Shape                                     Param #     
====================================================================================================
lambd (None, 136, 320, 2)                              0           
____________________________________________________________________________________________________
conv2 (None, 66, 158, 160)                             8160        
____________________________________________________________________________________________________
max_p (None, 33, 79, 160)                              0           
____________________________________________________________________________________________________
dropo (None, 33, 79, 160)                              0           
____________________________________________________________________________________________________
conv2 (None, 15, 38, 320)                              1280320     
____________________________________________________________________________________________________
max_p (None, 7, 19, 320)                               0           
____________________________________________________________________________________________________
dropo (None, 7, 19, 320)                               0           
____________________________________________________________________________________________________
conv2 (None, 2, 8, 640)                                5120640     
____________________________________________________________________________________________________
max_p (None, 1, 4, 640)                                0           
____________________________________________________________________________________________________
dropo (None, 1, 4, 640)                                0           
____________________________________________________________________________________________________
flatt (None, 2560)                                     0           
____________________________________________________________________________________________________
dense (None, 128)                                      327808      
____________________________________________________________________________________________________
dropo (None, 128)                                      0           
____________________________________________________________________________________________________
dense (None, 64)                                       8256        
____________________________________________________________________________________________________
dropo (None, 64)                                       0           
____________________________________________________________________________________________________
dense (None, 16)                                       1040        
____________________________________________________________________________________________________
dropo (None, 16)                                       0           
____________________________________________________________________________________________________
dense (None, 1)                                        17          
====================================================================================================
Total params: 6,746,241
Trainable params: 6,746,241
Non-trainable params: 0
____________________________________________________________________________________________________