Model: "sequential_7"
____________________________________________________________________________________________________
Layer Output Shape                                     Param #     
====================================================================================================
lambd (None, 136, 320, 2)                              0           
____________________________________________________________________________________________________
conv2 (None, 66, 158, 160)                             8160        
____________________________________________________________________________________________________
max_p (None, 33, 79, 160)                              0           
____________________________________________________________________________________________________
conv2 (None, 15, 38, 320)                              1280320     
____________________________________________________________________________________________________
max_p (None, 7, 19, 320)                               0           
____________________________________________________________________________________________________
conv2 (None, 2, 8, 640)                                5120640     
____________________________________________________________________________________________________
max_p (None, 1, 4, 640)                                0           
____________________________________________________________________________________________________
flatt (None, 2560)                                     0           
____________________________________________________________________________________________________
dense (None, 16)                                       40976       
____________________________________________________________________________________________________
dense (None, 1)                                        17          
====================================================================================================
Total params: 6,450,113
Trainable params: 6,450,113
Non-trainable params: 0
____________________________________________________________________________________________________