Model: "sequential_2"
____________________________________________________________________________________________________
Layer Output Shape                                     Param #     
====================================================================================================
lambd (None, 136, 320, 2)                              0           
____________________________________________________________________________________________________
conv2 (None, 44, 106, 100)                             5100        
____________________________________________________________________________________________________
max_p (None, 4, 10, 100)                               0           
____________________________________________________________________________________________________
flatt (None, 4000)                                     0           
____________________________________________________________________________________________________
dense (None, 128)                                      512128      
____________________________________________________________________________________________________
dense (None, 64)                                       8256        
____________________________________________________________________________________________________
dense (None, 16)                                       1040        
____________________________________________________________________________________________________
dense (None, 1)                                        17          
====================================================================================================
Total params: 526,541
Trainable params: 526,541
Non-trainable params: 0
____________________________________________________________________________________________________