Model: "sequential_6"
____________________________________________________________________________________________________
Layer Output Shape                                     Param #     
====================================================================================================
lambd (None, 120, 300, 2)                              0           
____________________________________________________________________________________________________
conv2 (None, 58, 148, 160)                             8160        
____________________________________________________________________________________________________
max_p (None, 29, 74, 160)                              0           
____________________________________________________________________________________________________
conv2 (None, 13, 35, 320)                              1280320     
____________________________________________________________________________________________________
max_p (None, 6, 17, 320)                               0           
____________________________________________________________________________________________________
flatt (None, 32640)                                    0           
____________________________________________________________________________________________________
dense (None, 1)                                        32641       
====================================================================================================
Total params: 1,321,121
Trainable params: 1,321,121
Non-trainable params: 0
____________________________________________________________________________________________________