Model: "sequential_1"
____________________________________________________________________________________________________
Layer Output Shape                                     Param #     
====================================================================================================
lambd (None, 136, 320, 2)                              0           
____________________________________________________________________________________________________
conv2 (None, 136, 320, 160)                            3040        
____________________________________________________________________________________________________
conv2 (None, 136, 320, 160)                            230560      
____________________________________________________________________________________________________
max_p (None, 68, 160, 160)                             0           
____________________________________________________________________________________________________
flatt (None, 1740800)                                  0           
____________________________________________________________________________________________________
dense (None, 128)                                      222822528   
____________________________________________________________________________________________________
dense (None, 1)                                        129         
====================================================================================================
Total params: 223,056,257
Trainable params: 223,056,257
Non-trainable params: 0
____________________________________________________________________________________________________