Model: "sequential_1"
____________________________________________________________________________________________________
Layer Output Shape                                     Param #     
====================================================================================================
lambd (None, 136, 320, 3)                              0           
____________________________________________________________________________________________________
conv2 (None, 44, 106, 80)                              6080        
____________________________________________________________________________________________________
max_p (None, 4, 10, 80)                                0           
____________________________________________________________________________________________________
flatt (None, 3200)                                     0           
____________________________________________________________________________________________________
dense (None, 128)                                      409728      
____________________________________________________________________________________________________
dense (None, 64)                                       8256        
____________________________________________________________________________________________________
dense (None, 16)                                       1040        
____________________________________________________________________________________________________
dense (None, 1)                                        17          
====================================================================================================
Total params: 425,121
Trainable params: 425,121
Non-trainable params: 0
____________________________________________________________________________________________________