Model: "sequential_4"
____________________________________________________________________________________________________
Layer Output Shape                                     Param #     
====================================================================================================
lambd (None, 136, 320, 2)                              0           
____________________________________________________________________________________________________
conv2 (None, 44, 106, 160)                             8160        
____________________________________________________________________________________________________
max_p (None, 14, 35, 160)                              0           
____________________________________________________________________________________________________
conv2 (None, 4, 11, 320)                               1280320     
____________________________________________________________________________________________________
max_p (None, 1, 3, 320)                                0           
____________________________________________________________________________________________________
flatt (None, 960)                                      0           
____________________________________________________________________________________________________
dense (None, 128)                                      123008      
____________________________________________________________________________________________________
dense (None, 64)                                       8256        
____________________________________________________________________________________________________
dense (None, 16)                                       1040        
____________________________________________________________________________________________________
dense (None, 1)                                        17          
====================================================================================================
Total params: 1,420,801
Trainable params: 1,420,801
Non-trainable params: 0
____________________________________________________________________________________________________