Model: "sequential_1"
____________________________________________________________________________________________________
Layer Output Shape                                     Param #     
====================================================================================================
lambd (None, 136, 320, 3)                              0           
____________________________________________________________________________________________________
conv2 (None, 44, 106, 40)                              3040        
____________________________________________________________________________________________________
max_p (None, 4, 10, 40)                                0           
____________________________________________________________________________________________________
flatt (None, 1600)                                     0           
____________________________________________________________________________________________________
dense (None, 128)                                      204928      
____________________________________________________________________________________________________
dense (None, 64)                                       8256        
____________________________________________________________________________________________________
dense (None, 16)                                       1040        
____________________________________________________________________________________________________
dense (None, 1)                                        17          
====================================================================================================
Total params: 217,281
Trainable params: 217,281
Non-trainable params: 0
____________________________________________________________________________________________________